model/model.pth (torch, 16787 bytes, 4 tensors)

linear1.weight f4 [256, 11]
0	0xbeecbd1f	-0.46238038
1	0x3cd8ddca	0.026472945
2	0xbd09690f	-0.033547457
3	0xbef47758	-0.47747302
4	0xbee49a8a	-0.44649154
5	0x3e67a3fb	0.22621147
6	0x3e85120a	0.25990325
7	0xbe9d1ebb	-0.30687508
8	0xbe96bf30	-0.2944274
9	0x3eec6975	0.46174207
10	0x3ec52db1	0.38511422
11	0x3ed7bec2	0.42137724
12	0xbeafb128	-0.34314847
13	0x3cb90207	0.022583975
14	0xbe8c4542	-0.2739659
15	0x3c9dcd95	0.019263068
16	0x3e1e0b30	0.15433955
17	0xbea9ce52	-0.33165222
18	0xbdf0d932	-0.11760177
19	0x3e106d65	0.1410423
20	0xbcfa73bf	-0.03057277
21	0x3f001751	0.5003558
22	0xbe2696bb	-0.16268437
23	0xbe4be759	-0.19912471
24	0xbe41c741	-0.18923666
25	0xbe06201a	-0.13098183
26	0x3e4cdd54	0.20006305
27	0x3ddc398f	0.10753166
28	0xbe01844f	-0.12648128
29	0xbdc22f42	-0.0948167
30	0xbdde1855	-0.10844485
31	0x3dac0389	0.08399112
32	0x3d50a979	0.05094287
33	0xbd758808	-0.059944183
34	0x3c3b4240	0.011429369
35	0xbe07aa05	-0.13248451
36	0x3c8a1e6f	0.016860215
37	0xbd031870	-0.032005727
38	0xbd4e5b50	-0.05038005
39	0x3d150217	0.036378946
40	0x3dc10e7e	0.09426592
41	0xbe4b79a3	-0.1987062
42	0xbe7a9350	-0.24470258
43	0xbe0e39e1	-0.13889267
44	0x3da7e2da	0.081975654
45	0x3cfaa52e	0.030596342
46	0x3bb31ce6	0.0054660914
47	0x3e3ac53c	0.18239301
48	0x3f19b7d4	0.60046124
49	0xbbb7207e	-0.00558859
50	0xbdee3749	-0.116316386
51	0xbf1e855b	-0.61922234
52	0xbebffd49	-0.3749793
53	0x3e75accc	0.23991698
54	0x3eb869eb	0.3601831
55	0xbdbd3704	-0.09239009
56	0x3eb63a33	0.35591277
57	0x3e2987a4	0.16555649
58	0x3d3d122a	0.0461599
59	0xbdc50fa5	-0.096221246
60	0x3d6d2877	0.05789992
61	0xbc9abf11	-0.018889936
62	0xbe62e1a1	-0.22156383
63	0xbd763e5e	-0.06011807
64	0xbeac3358	-0.33632922
65	0xbc16dc55	-0.009207805
66	0x3f02622c	0.5093105
67	0x3d41c602	0.047307976
68	0xbd9f8b66	-0.0779026
69	0xbea3400d	-0.31884804
70	0xbdfeb826	-0.12437467
71	0x3e8fc8e0	0.28082943
72	0x3da8b2cf	0.0823723
73	0x3e9ac788	0.30230355
74	0x3da05e69	0.07830507
75	0xbea2c438	-0.31790328
76	0xbdf7264f	-0.12067854
77	0x3eace933	0.33771667
78	0x3d2831eb	0.04106323
79	0xbe99278c	-0.29912984
80	0xbe9b9b68	-0.30392003
81	0xbe0aa72b	-0.13540332
82	0xbdf3b824	-0.119003564
83	0x3e6f7b25	0.2338682
84	0x3e951739	0.2911928
85	0x3d23e6bc	0.040014967
86	0x3c5b026c	0.013367277
87	0xbedfb2b1	-0.43691018
88	0x3eaf3c60	0.3422575
89	0x3e446131	0.191777
90	0x3e8292d9	0.2550266
91	0x3ea531f7	0.32264683
92	0xbe8af8fe	-0.2714309
93	0x3d8344ec	0.0640963
94	0xbeae9256	-0.3409602
95	0xbea321a4	-0.31861603
96	0x3eb8c995	0.36091295
97	0xbda0e734	-0.078565985
98	0x3ee3d2e3	0.4449683
99	0x3d826bb8	0.06368202
100	0xbc5a68b2	-0.013330625
101	0xbdcd5ce3	-0.10027482
102	0xbeadc80b	-0.33941683
103	0x3ea4c8a9	0.32184342
104	0x3e51114c	0.20416754
105	0x3d5ec4d4	0.05438693
106	0x3e8fc081	0.28076556
107	0xbec42ac4	-0.38313878
108	0xbe89a878	-0.26886344
109	0xbdd9491c	-0.10609648
110	0xbf156507	-0.5835728
111	0xbd86f6b2	-0.06590022
112	0x3ed04372	0.40676457
113	0x3d1db994	0.03850706
114	0x3e1c2143	0.15247063
115	0x3dde5844	0.10856679
116	0xbf260c68	-0.6486268
117	0x3d12a4aa	0.035801567
118	0xbcf65da8	-0.030073956
119	0x3e9a17f8	0.30096412
120	0xbf2416df	-0.640974
121	0xbe89f010	-0.26940966
122	0xbc5f2fc0	-0.013622224
123	0x3e010350	0.1259892
124	0xbd8d5bca	-0.06902273
125	0x3dd054f6	0.10172455
126	0xbe60de1a	-0.21959725
127	0xbe03d79b	-0.12875216
128	0x3db20682	0.086926475
129	0x3dc83d84	0.09777358
130	0xbdad3699	-0.08457679
131	0xbe2f7666	-0.17135009
132	0x3d246f09	0.040144954
133	0x3d49c515	0.049260218
134	0x3f058f42	0.5217172
135	0xbecf073e	-0.40435213
136	0xbdab7a72	-0.08372964
137	0xbd132c78	-0.03593108
138	0x3e6435b4	0.22286111
139	0x3df14c0c	0.11782083
140	0xbe5659c8	-0.20932686
141	0xbe4acbbd	-0.19804282
142	0xbcbbcb87	-0.022924198
143	0xbda315ef	-0.07963168
144	0x3da5fad3	0.081044815
145	0x3f225abd	0.63419706
146	0x3e01df75	0.12682898
147	0x3ddbf555	0.10740153
148	0xbecd4b09	-0.4009631
149	0xbe31fc27	-0.17381345
150	0x3e983518	0.29728007
151	0x3e7b5c65	0.24546964
152	0xbeda50fc	-0.4263991
153	0xbe72b0eb	-0.23700301
154	0x3e4cb2d9	0.199901
155	0x3e1c69e8	0.15274775
156	0x3e780766	0.24221572
157	0x3d11cf92	0.035598345
158	0xbd90a00d	-0.07061777
159	0xbdc5e4f8	-0.09662813
160	0xbd9cc38b	-0.07654484
161	0x3e9bfc2c	0.3046583
162	0x3eb13cee	0.34616798
163	0x3ebfcd90	0.3746152
164	0x3eb67638	0.3563707
165	0x3e6c5802	0.23080447
166	0x3f173d77	0.5907816
167	0xbebf2c1a	-0.37338334
168	0x3e2ce4f9	0.16884221
169	0x3e4faa32	0.20279768
170	0xbe612b09	-0.21989073
171	0xbdeee560	-0.116648436
172	0xbda9a72a	-0.08283837
173	0x3dca9e8f	0.09893524
174	0x3e1d8542	0.15382865
175	0x3e71384e	0.23556635
176	0x3efb7b46	0.49117488
177	0xbe105b62	-0.1409736
178	0xbe11cdaf	-0.14238618
179	0x3dd22763	0.10261419
180	0x3ecf104a	0.40442115
181	0xbe3f6778	-0.18691814
182	0x3e400e38	0.18755424
183	0xbd3b09f9	-0.045663808
184	0xbe8ff1e4	-0.28114235
185	0x3e96a5da	0.2942341
186	0xbdbd28b4	-0.09236279
187	0x3d492d71	0.049115602
188	0x3e92d4ee	0.28678077
189	0xbe51ba37	-0.20481192
190	0x3ea5a91c	0.32355583
191	0xbf11120b	-0.56668156
192	0xbe8cd429	-0.27505615
193	0x3b7a1b40	0.0038163215
194	0xbe4eb7c3	-0.20187287
195	0xbcd66276	-0.026169997
196	0xbee91d75	-0.45530286
197	0x3e073064	0.13202053
198	0xbd64acd1	-0.055828873
199	0xbe84f644	-0.25969136
200	0x3f302a0e	0.6881417
201	0x3e9bd7d0	0.3043809
202	0xbd88a06e	-0.066712245
203	0xbe1ff2ec	-0.15620011
204	0x3eb65126	0.35608786
205	0x3e5059f8	0.2034682
206	0xbe6a62e5	-0.22889288
207	0x3d8d7c9e	0.069085345
208	0xbe238cee	-0.15971729
209	0xbf15c76b	-0.5850741
210	0xbe1705e8	-0.14748347
211	0x3e119cee	0.1422002
212	0xbd54bd38	-0.051938266
213	0xbe77ffd9	-0.24218692
214	0x3d7cafa2	0.061690934
215	0xbcdd8e24	-0.027045317
216	0x3dfb80ed	0.1228045
217	0x3e0c818e	0.13721296
218	0xb9fadb10	-0.0004784693
219	0x3e6bd88e	0.23031828
220	0x3e98604c	0.2976097
221	0xbe48e2ae	-0.19617721
222	0xbc07853e	-0.0082715135
223	0x3e681d1c	0.22667354
224	0x3ed3ff0b	0.4140552
225	0xbdf0c763	-0.1175678
226	0xbebe64d2	-0.37186295
227	0xbd2d627a	-0.042330243
228	0xbe393e7d	-0.18090244
229	0x3ea043f9	0.3130186
230	0x3f10d43c	0.56573844
231	0xbece3850	-0.40277338
232	0x3a70390c	0.0009163774
233	0x3d6eed79	0.05833194
234	0xbef26fe9	-0.47351006
235	0xbee91018	-0.4552009
236	0x3d420ada	0.04737363
237	0x3eef58de	0.46747488
238	0xbc93d12e	-0.01804408
239	0xbf0096b7	-0.5022997
240	0xbefcf54b	-0.49405894
241	0x3eaf50b1	0.3424125
242	0x3ed0d9c7	0.4079115
243	0x3eaff70f	0.34368178
244	0x3e452424	0.19252068
245	0x3bd6fa75	0.0065606185
246	0x3cf1503e	0.029457208
247	0xbe629710	-0.22127938
248	0xbc84f3ad	-0.016229475
249	0x3e56f0e8	0.20990336
250	0x3e69fbd2	0.22849968
251	0x3ed455d3	0.4147173
252	0x3e65a4a9	0.22426094
253	0xbe4d835a	-0.20069638
254	0xbe0a6423	-0.13514762
255	0x3ded2029	0.115784

linear1.bias f4 [256]
0	0x3d9c1f9d	0.07623217
1	0xbe2a5f40	-0.16637897
2	0xbe93fe7c	-0.28905094
3	0xbe222f6b	-0.15838401
4	0xbe850de8	-0.25987172
5	0xbdc2464d	-0.09486065
6	0x3b859f5a	0.004077834
7	0x3be24c08	0.0069060363
8	0xbe09bd8b	-0.13451211
9	0x3d25b909	0.040459666
10	0x3f05483e	0.5206336
11	0xbeb3da9f	-0.35127732
12	0xbdc7da3c	-0.09758422
13	0xbda260d1	-0.079286225
14	0xbe9d5ebf	-0.30736348
15	0xbd346e9f	-0.04405081
16	0xbdcdd8a9	-0.1005109
17	0x3de535ea	0.11191924
18	0xbd2d2e0f	-0.042280253
19	0xbd6765a9	-0.056493435
20	0xbe4d99f8	-0.20078266
21	0x3c327e80	0.010894418
22	0xbe958732	-0.29204708
23	0xbcf85e0f	-0.030318288
24	0xbe76b31c	-0.24091762
25	0x3e3f30b1	0.18670918
26	0x3e131b9e	0.14366004
27	0xbd8ea02a	-0.069641426
28	0xbe996729	-0.29961517
29	0x3ea8464b	0.3286613
30	0xbe8c8311	-0.27443746
31	0x3e944ea0	0.28966236
32	0x3e50a18c	0.20374125
33	0xbe895c96	-0.2682845
34	0xbe4dd9d2	-0.20102623
35	0xbe48c5ae	-0.19606659
36	0x3c00bc8f	0.007857456
37	0xbe466ec6	-0.19378194
38	0xbe14e649	-0.14540972
39	0xbea45fcc	-0.32104337
40	0x3dc5a9e7	0.09651547
41	0x3e39eb29	0.18156113
42	0xbdba4b21	-0.09096361
43	0xbe4be186	-0.19910249
44	0xbe22d02c	-0.15899724
45	0x3cf129ab	0.029438814
46	0xbe68cfd4	-0.2273553
47	0xbe7ba0ee	-0.24573109
48	0x3dcfe116	0.101503536
49	0xbe082837	-0.13296591
50	0xbd1d2ab7	-0.038370814
51	0xbe55b567	-0.20869981
52	0x3b0fa6f0	0.002191957
53	0x3d3cecca	0.046124257
54	0xbd832af1	-0.06404675
55	0x3d3b4976	0.045724355
56	0xbe230501	-0.15919878
57	0xbebc79c3	-0.36811647
58	0xbb62f8d7	-0.0034633183
59	0xbcda601c	-0.026657157
60	0xbd9504ef	-0.07276332
61	0x3f106f65	0.56419975
62	0xbe1781c3	-0.14795594
63	0x3e3e684e	0.18594477
64	0xbe980825	-0.29693714
65	0x3e2e8b50	0.17045331
66	0x3dac02b2	0.083989516
67	0xbece862f	-0.4033675
68	0xbe7d7d04	-0.24754721
69	0x3e1e33a1	0.15449382
70	0xbe78e82e	-0.2430732
71	0x3d15a20e	0.0365315
72	0x3e92e33d	0.28688994
73	0xbe0ae66c	-0.13564461
74	0x3eb8e08a	0.3610881
75	0x3e0e0c96	0.13871989
76	0xbd49cb63	-0.04926623
77	0xbe47bddb	-0.19506018
78	0x3c8cb6f7	0.017177088
79	0x3ead1591	0.33805516
80	0xbd8f8da7	-0.0700944
81	0x3bfc9243	0.0077078654
82	0x3e292c52	0.16520813
83	0xbe5834a3	-0.2111383
84	0x3ddad3c8	0.10684925
85	0xbca463f3	-0.02006719
86	0xbe719462	-0.2359176
87	0x3e8856e2	0.26628786
88	0x3db4e16d	0.08832059
89	0xbec194df	-0.37808892
90	0xbeb6f0da	-0.3573063
91	0x3e808db5	0.25108114
92	0x3dc7c686	0.09754662
93	0xbd99e48e	-0.075142965
94	0x3da8a6fe	0.08234976
95	0xbdeacbb6	-0.11464636
96	0xbe50e4dd	-0.20399804
97	0xbd3610fa	-0.044449784
98	0x3e865693	0.26237926
99	0x3c9c3b12	0.019071136
100	0x3e8f194b	0.27948985
101	0x3e68fb89	0.22752203
102	0xbe101a0c	-0.14072436
103	0x3a4c8f73	0.0007803358
104	0xbdc64dad	-0.09682784
105	0xbdec5e72	-0.115414515
106	0xbdb083f9	-0.08618922
107	0xbdfae150	-0.12250006
108	0xbd2658b8	-0.040611953
109	0xbe491373	-0.19636326
110	0xbe42f566	-0.19038925
111	0xbea4ecf7	-0.3221204
112	0xbd058d85	-0.032605667
113	0xbe44fe82	-0.19237712
114	0xbdfe3a46	-0.124134585
115	0x3e3f85ef	0.18703435
116	0xbe44cf0b	-0.19219606
117	0x3dcb603e	0.09930466
118	0x3de3649f	0.11103176
119	0x3e37feaa	0.1796824
120	0x3d782826	0.060585164
121	0xbee1feb6	-0.44139642
122	0xbe1f3203	-0.15546422
123	0xbda5e2c7	-0.08099895
124	0xbddaf9d3	-0.106921814
125	0xbe260066	-0.1621109
126	0x3e848850	0.25885248
127	0x3f320831	0.6954375
128	0x3e8b3b4d	0.2719368
129	0xbe04fc1d	-0.12986799
130	0x3db04f56	0.08608882
131	0x3d7e7386	0.06212189
132	0x3e8c177b	0.27361664
133	0xbe239394	-0.15974265
134	0xbe77bfc8	-0.24194252
135	0xbe189ffb	-0.14904778
136	0xbe9304f6	-0.28714722
137	0xbdc300ef	-0.095216624
138	0x3edf3e23	0.43602094
139	0x3ce1c40e	0.027559306
140	0xbe1f197c	-0.15537065
141	0x3f2b3e12	0.66891587
142	0xbeb0ae97	-0.345082
143	0xbad09e1c	-0.0015916261
144	0x3e2cfdf7	0.16893755
145	0xbe7c3090	-0.246279
146	0x3db58838	0.08863872
147	0xbd584ada	-0.05280576
148	0x3da27942	0.07933284
149	0x3f2712b1	0.65262896
150	0x3e0e345d	0.13887163
151	0xbe29372a	-0.1652495
152	0xbe7a1aaf	-0.24424241
153	0xbe67b8ad	-0.22629042
154	0x3dd5c7de	0.10438512
155	0xbe22d370	-0.1590097
156	0xbe802974	-0.25031626
157	0x3f152ff4	0.58276296
158	0x3e9182aa	0.2842
159	0xbd2cf0da	-0.04222188
160	0xbe9769be	-0.29572862
161	0xbec2eff4	-0.38073695
162	0xbe2820a3	-0.164187
163	0xbde988e7	-0.11403065
164	0xbe0f4370	-0.13990569
165	0xbdf6a006	-0.12042241
166	0x3ebc14b3	0.36734542
167	0xbe32275d	-0.17397828
168	0xbdcf71c7	-0.10129123
169	0xbd92ea2b	-0.0717357
170	0x3dfb2810	0.12263501
171	0xbe631e88	-0.22179615
172	0xbe831a9c	-0.2560624
173	0xbdecce49	-0.11562783
174	0x3d472e72	0.048628278
175	0xbdd2a201	-0.10284806
176	0x3dc25b08	0.09490019
177	0xbdaa63c3	-0.08319809
178	0x3e2798e2	0.16366914
179	0xbcf841cb	-0.03030481
180	0xba4112b6	-0.0007365154
181	0x3c95d17e	0.01828837
182	0x3ccd666a	0.025073249
183	0xbe80f59e	-0.2518739
184	0xbeb870ab	-0.3602346
185	0xbd31b5bc	-0.043386206
186	0xbedc640d	-0.43045083
187	0xbd8ad8f2	-0.0677966
188	0xbea8d844	-0.32977498
189	0xbe5fc9a2	-0.2185426
190	0xbe8fafe8	-0.28063893
191	0xbf1520e1	-0.58253294
192	0xbed75cbf	-0.42062947
193	0x3cbcb51a	0.023035575
194	0xbdfe6037	-0.12420695
195	0x3dbdbdb3	0.09264698
196	0x3df0e624	0.11762646
197	0xbe82cde4	-0.25547707
198	0x3f1b9a58	0.60782385
199	0xbcef041d	-0.029176766
200	0xbe3ff6bc	-0.18746465
201	0xbecb4c24	-0.39706528
202	0x3e67e823	0.22647147
203	0x3df7d1f7	0.121005945
204	0xbd1f7f45	-0.038939733
205	0xbe138702	-0.1440697
206	0xbd88348b	-0.06650647
207	0xbdadca0c	-0.08485803
208	0x3e2045bd	0.15651603
209	0x3d7370ce	0.05943375
210	0xbe3c6ff4	-0.18402082
211	0xbe1cec17	-0.15324436
212	0x3e273c77	0.1633166
213	0x3d20e9c6	0.039285444
214	0xbbb5c942	-0.0055476734
215	0xbe54bf3e	-0.20776078
216	0x3bb84340	0.005623251
217	0xbe83b910	-0.2572713
218	0xbe99711d	-0.2996911
219	0x3e748ba1	0.23881389
220	0x3c842de8	0.016135171
221	0xbdf5f3a6	-0.12009363
222	0xbc2ba26f	-0.010475739
223	0x3ed0efaf	0.40807864
224	0x3eaeb3f9	0.34121683
225	0x3e5b529d	0.21418233
226	0x3e8b50d7	0.27210113
227	0xbb931ed4	-0.004489759
228	0x3ef7453a	0.48295003
229	0xbe4133b8	-0.18867385
230	0x3f08ac22	0.53387654
231	0xbdc52e16	-0.09627931
232	0xbe343c15	-0.17601044
233	0xbd006add	-0.031351913
234	0xbe59b229	-0.21259369
235	0xbe7f1974	-0.24912053
236	0xbe96ba21	-0.2943888
237	0x3d8af96a	0.06785853
238	0xbe1360f5	-0.14392455
239	0xbeb08d89	-0.34482983
240	0x3e98b062	0.2982207
241	0xbeac9b64	-0.33712304
242	0xbe64e288	-0.2235204
243	0x3d32b3e4	0.04362859
244	0xbdd8b291	-0.10580934
245	0x3ec215a1	0.37907127
246	0xbc48ee2b	-0.012263815
247	0xbdaf72ea	-0.0856684
248	0x3ecd37c1	0.400816
249	0x3edf1d94	0.43577254
250	0xbe96e404	-0.29470837
251	0x3f08e863	0.53479594
252	0xbe734919	-0.23758353
253	0x3d89c7e7	0.067275815
254	0xbcef8366	-0.02923746
255	0xbdcad974	-0.09904757

linear2.weight f4 [3, 256]
0	0x3f0dea26	0.5543541
1	0xbe980c32	-0.29696804
2	0x38c59fb3	9.423438e-05
3	0xbbb4290c	-0.005498057
4	0xbed9352f	-0.42423388
5	0xbc6492f2	-0.01395105
6	0xbe3b9636	-0.1831902
7	0xbe10d2b9	-0.14142884
8	0xbe8b14b3	-0.2716423
9	0xbe98792b	-0.29779944
10	0x3eab9c28	0.33517575
11	0xbc724f1c	-0.014789369
12	0x3d9c93cb	0.07645377
13	0x3e50a3e5	0.20375021
14	0xbe163497	-0.14668499
15	0xbd89e2d5	-0.06732718
16	0xbecb2bca	-0.39681846
17	0x3d954e2b	0.072903
18	0x3e2c31f9	0.16815938
19	0x3b266988	0.0025392491
20	0xbf341bbc	-0.7035482
21	0x3e7ba691	0.24575259
22	0xbe176cc8	-0.1478759
23	0xbd28ca57	-0.04120859
24	0xbedf710b	-0.43640932
25	0x3ed7b62f	0.42131183
26	0x3e5116c2	0.20418838
27	0x3ea64c8e	0.32480282
28	0xbbbf7633	-0.005842948
29	0x3e8f6427	0.28006098
30	0x3c304635	0.010758926
31	0x3e40abf3	0.18815593
32	0x3ec78065	0.38965145
33	0x3c5f61f2	0.013634192
34	0xbe61445b	-0.21998732
35	0xbea28e1e	-0.31749052
36	0xbcc30d4a	-0.023810048
37	0xbb211f0d	-0.0024585158
38	0x3e307d19	0.17235221
39	0xbe084ee9	-0.13311352
40	0x3e916317	0.28395912
41	0x3c1579d1	0.009123282
42	0xbe269f27	-0.1627165
43	0xbd471bfc	-0.048610672
44	0xbe59b780	-0.21261406
45	0x3cc5563b	0.02408897
46	0xbd2b7535	-0.041859824
47	0xbee55ded	-0.44798222
48	0x3ebb3bad	0.36568967
49	0xbdea1a5d	-0.1143081
50	0x3e01af66	0.12664565
51	0xbe2555e7	-0.1614605
52	0xbd776b40	-0.060405016
53	0xbd58a88f	-0.052895125
54	0xbd10f305	-0.03538801
55	0x3ec8a703	0.3918992
56	0xbd634b64	-0.05549182
57	0xbd3f9a78	-0.046778172
58	0xbe1c80ee	-0.15283558
59	0xbef6a766	-0.4817459
60	0xbdddfad1	-0.10838855
61	0x3e958c74	0.2920872
62	0xbf034c15	-0.51287967
63	0x3eaf11f4	0.34193385
64	0xbdb27861	-0.08714367
65	0x3ee8553f	0.45377538
66	0x3cc74669	0.024325566
67	0xbdffa77a	-0.124831155
68	0x3d03b8fc	0.032158837
69	0x3e0acd29	0.13554825
70	0xbb809215	-0.0039236643
71	0xbd0b4e0d	-0.034009982
72	0x3e41953e	0.18904588
73	0xbe0c03fe	-0.13673398
74	0x3eb1d057	0.34729263
75	0x3e735ae3	0.2376514
76	0xbf01ea8f	-0.50748533
77	0xbe3089c9	-0.17240061
78	0xbdd40be0	-0.103538275
79	0x3e4a83e0	0.19776869
80	0xbe1c5446	-0.15266523
81	0x3ef4cbfe	0.47811884
82	0x3eb31547	0.3497717
83	0xbe8a1bc5	-0.2697431
84	0xbece0ade	-0.40242666
85	0xbd8af76d	-0.06785474
86	0xbeb54afa	-0.35408765
87	0x3e07a520	0.13246584
88	0x3d71c079	0.059021447
89	0xbe7b16ea	-0.2452046
90	0xbead61da	-0.33863717
91	0x3e3d0940	0.1846056
92	0x3c090a49	0.008364269
93	0xbc877656	-0.01653592
94	0x3da505a7	0.08057719
95	0xbe462504	-0.19350058
96	0xbe83e727	-0.25762293
97	0xbf08774a	-0.5330702
98	0x3ebf8c2d	0.37411633
99	0x3e246431	0.16053845
100	0x3ecef3c0	0.40420341
101	0x3e9e9a5c	0.30977142
102	0xbc7310eb	-0.0148355765
103	0xbe29fc24	-0.1660009
104	0xbe676671	-0.22597672
105	0x3d2c0554	0.04199727
106	0x3c90102a	0.017585833
107	0xbe1f71fb	-0.15570824
108	0xbee5a83f	-0.44854924
109	0xbe3d83a8	-0.18507254
110	0xbd84eb39	-0.06490178
111	0xbd3b36d1	-0.045706574
112	0xbe3385a5	-0.1753145
113	0xbd6c2393	-0.057651114
114	0x3bb3f542	0.0054918835
115	0x3ea8ae41	0.32945445
116	0xbcc573b1	-0.024103018
117	0x3e297104	0.16547018
118	0x3e6bde5d	0.23034044
119	0x3e9686fb	0.29399857
120	0xbebd1d76	-0.3693654
121	0xbe32321a	-0.17401925
122	0x3e357308	0.17719662
123	0x3d85d901	0.06535531
124	0xbe815521	-0.2526026
125	0xbe2e9659	-0.1704954
126	0x3da8d1b9	0.082431264
127	0x3e4b7d74	0.19872075
128	0x3e26f9e3	0.16306262
129	0x3ead83f0	0.33889723
130	0x3dc626c4	0.09675363
131	0xbe34bd85	-0.17650421
132	0x3dc7c070	0.097535014
133	0xbd25e0c7	-0.040497568
134	0xbdd8a5ec	-0.10578522
135	0xbe013742	-0.12618735
136	0xbe2d0c66	-0.16899261
137	0x3e8391b6	0.25697106
138	0x3ea11661	0.31462386
139	0xbd97d9aa	-0.07414563
140	0xbe116c80	-0.14201546
141	0x3e1695b5	0.14705546
142	0xbd1d6c51	-0.038433377
143	0x3ea502f9	0.3222883
144	0x3e9f8a09	0.3116
145	0xbe8898dc	-0.26679122
146	0x3df39099	0.11892814
147	0x3e91f0ae	0.28503937
148	0x3e4eaf11	0.2018397
149	0x3eed7f0b	0.4638599
150	0x3d114bf0	0.03547281
151	0xbec02828	-0.37530637
152	0xbec2d11e	-0.3805017
153	0xbee24770	-0.44195127
154	0xbeacd9fe	-0.33760065
155	0xbd58e9e9	-0.05295745
156	0x3ba57c07	0.0050501856
157	0x3ebdd498	0.3707626
158	0x3f0353e5	0.5129989
159	0xbebefbc6	-0.37301463
160	0x3daaf058	0.08346623
161	0xbed2740a	-0.41104156
162	0xbdcca037	-0.09991496
163	0xbc08b2b2	-0.0083433855
164	0xbd9ccd89	-0.0765639
165	0x3e81b8b2	0.25336224
166	0x3ebdb7f0	0.37054396
167	0xbe4671a7	-0.19379292
168	0xbbbed131	-0.0058232774
169	0xbbb7e508	-0.0056120194
170	0x3e6480fb	0.22314827
171	0x3d0139fc	0.03154944
172	0xbdd36c47	-0.10323387
173	0xbe80c14e	-0.2514748
174	0xbca57547	-0.020197524
175	0xbf3240ff	-0.69630426
176	0x3d7cf0d5	0.061753113
177	0x3c1e3027	0.009655035
178	0xbebeb334	-0.37246096
179	0xbdd3e501	-0.103464134
180	0x3c0672bf	0.008206069
181	0xbe799faf	-0.2437732
182	0xbd1dd7c7	-0.03853586
183	0x3ea1d7ba	0.316099
184	0xbe4d2ce3	-0.20036654
185	0x3c998c46	0.018743645
186	0xbe639c3d	-0.22227569
187	0x3ecbcb7c	0.39803684
188	0xbece821f	-0.4033365
189	0xbd51f6fa	-0.051260926
190	0xbe33c6c4	-0.17556292
191	0xbe945e2c	-0.28978097
192	0xbeabe6e9	-0.33574608
193	0xbe4cc32a	-0.19996324
194	0xbed3cbff	-0.41366574
195	0xbdecddeb	-0.11565765
196	0x3d9a32ef	0.07529246
197	0xbdc2d74f	-0.09513723
198	0x3e7908e4	0.24319798
199	0x3dc36e59	0.095425315
200	0xbeff9639	-0.49919298
201	0xbc9a28a8	-0.018818215
202	0x3eb1cde7	0.34727404
203	0xbd212728	-0.039343983
204	0x3e323d51	0.17406203
205	0xbe1cd658	-0.1531614
206	0xbc9751ab	-0.01847156
207	0xbe85c854	-0.261294
208	0x3ea8c0d8	0.32959628
209	0xbf147f9a	-0.58007205
210	0xbe201f40	-0.15636921
211	0xbe2d81c7	-0.16944037
212	0x3d0abc7b	0.033871155
213	0xbf0c7838	-0.5487094
214	0xbd4221eb	-0.047395628
215	0xbf008bde	-0.5021342
216	0xbdd1e35d	-0.10248444
217	0xbcc2e5d3	-0.02379123
218	0x3d58cc7e	0.052929394
219	0x3d9806e8	0.07423192
220	0xbe9fbbba	-0.31197912
221	0xbeacb318	-0.33730388
222	0xbee0eacf	-0.43929145
223	0x3e8a0706	0.26958483
224	0x3e9acbde	0.30233663
225	0x3e412ff0	0.18865943
226	0x3e383458	0.17988718
227	0xbdbeb95e	-0.093127
228	0x3e3c8437	0.18409811
229	0xbdd44dab	-0.103663765
230	0x3e9ff95b	0.3124493
231	0x3efd0218	0.4941566
232	0x3d4c0912	0.049813338
233	0xbe8c8442	-0.27444655
234	0xbea9755c	-0.3309735
235	0x3d086564	0.03329982
236	0xbc9b639f	-0.018968401
237	0x3d291981	0.041284088
238	0x3c0e0a3f	0.008669435
239	0xbe237e33	-0.1596611
240	0x3eb35709	0.3502734
241	0xbe91905e	-0.28430456
242	0xbef21ef5	-0.47289243
243	0xbdc2b8dc	-0.095079154
244	0xbe8f3f05	-0.27977768
245	0x3ec8c0db	0.39209637
246	0xb7c6ef60	-2.3714907e-05
247	0x3ed2eea9	0.41197708
248	0x3f0af64e	0.5428208
249	0x3e9110eb	0.2833322
250	0x3e80474f	0.25054404
251	0x3e516cb4	0.20451623
252	0xbda7f04c	-0.0820013
253	0x3c5d9bd9	0.0135259265
254	0x3d119c23	0.035549294
255	0x3ca23935	0.019802669

linear2.bias f4 [3]
0	0x3e5b4751	0.21413924
1	0x3d8cf39a	0.06882401
2	0x3da6d718	0.081464946
