model/model.pth (torch, 16787 bytes, 4 tensors)

linear1.weight f4 [256, 11]
00000000: 63e9 34bf a0fa 0a3f dd4b 983e 82f3 7fbe
00000010: 0e45 653e 3473 003e eec4 083d 032a b9be
00000020: 9d45 243d a82f 8e3e 584d 8a3e 64c8 ca3e
00000030: bbdd 193e af63 0b3f aec1 c03c 6e7d acbd
00000040: b29a 64be cfa6 5f3d fbe0 be3e 7d93 a73e
00000050: 0e1a 793e 7724 113e f0ce 0b3f c19b 3fbe
00000060: fba3 dabd f861 903d 6b9c 3cbe 80fa 843d
00000070: e3b0 3a3e e3a1 90bd 11c8 7e3d 7871 80be
00000080: c218 193c 7fcd b8bd c7f9 a4bd b336 de3e
00000090: f001 f8bd f021 4d3e 6920 37be 782e a93e
000000a0: ef89 a53e 7927 46be 14ef 8abd 15f3 42be
000000b0: f085 423e 5c76 8e3d 1c60 19bf b24e 00bd
000000c0: afa2 20bd d623 21be 94e5 7f3e 521c 1c3e
000000d0: 7207 723e d254 a53e 6812 d0be 2d3f 993e
000000e0: 3647 993d 5b7f be3e ac57 28be d3ca 6ebd
000000f0: 1db1 10be 10d2 bbbe a257 0f3e 155e 753e
00000100: 6d3a a53d 2280 9e3e 4039 413e 8be1 773e
00000110: 0b6a 44be 53c4 bbbd ec50 9a3d daea a0be
00000120: 16d7 87be c7fe ba3d 2b3f 8fbe 8081 82be
00000130: 5194 b9bd 72f0 f03d 0d07 b2be f7b9 4cbe
00000140: ec08 c93e a735 c2be e572 9b3e bdb2 28be
00000150: 87df fa3e c9da b4be 0420 d3be 0b2d d7be
00000160: 6668 f33e 0634 1e3d 65ac 143f e653 edbe
00000170: ab36 5bbe 6c6e 3dbe b350 4f3c 7fc1 d03e
00000180: ecbe 5c3e c405 153e f639 663c feac 6e3e
00000190: c8d4 0fbe 52b2 1f3f 4c33 14be cbfc ee3d
000001a0: 2d4f 65be 0dfe 853e a183 d43e 2e87 5abd
000001b0: 555b e23d bfba f93a 8058 f2bd 5fec c8be
000001c0: e62d c43e bb0d b63e 02e8 463e 4d35 c83d
000001d0: bd8b 1fbe 8908 473e fbbe 2c3e d6a9 2e3e
000001e0: 8480 bdbe 9711 d03d 2030 9dbe 51e5 98bc
000001f0: b5bb 12be 1c6b 7bbe ebda 983e 92af 013d
00000200: 7ad7 88be 4af0 aebe 444b 983c 3183 8a3e
00000210: 70e1 cfbe 4b1b deba 4624 003f 68de 04be
00000220: d898 6bbc 22e1 27be 7bf5 a8bb 33fd dd3c
00000230: 252a c8bb 5df4 6bbe aa63 2ebd 7c86 943e
00000240: b100 c73e af5d e33d b0b0 193e eb63 c6be
00000250: 42f1 4fbe e32e 1ebd f36b 5fbe 87fa d93e
00000260: 1007 143e 21cc 4abd 1f38 ae3d 6b45 be3e
00000270: b350 1cbe 633a 21be dbcf 5abe 77e7 babd
00000280: b60d 7ebe 38e3 cb3e db56 ea3e 89ad 8c3d
00000290: b232 6b3d 640e 1bbe 5976 003f 27a7 113f
000002a0: 9ce6 9dbe dc08 a5be e63c a3be ca3a adbc
000002b0: 2f74 453e ac20 1b3d 3a8f 7a3e 3d37 013e
000002c0: 3ce3 8ebe 9a59 033f e76d 7c3e cf84 433e
000002d0: 9155 71bd 5ad8 523e 6dc9 c5be 4c81 18be
000002e0: f174 6e3e d237 4cbe a763 46be cb1b 96bb
000002f0: 36ea 80bd a80c e9bd 6e86 9ebd 719c 75be
00000300: b4e2 99bd 9b6d 7a3d 2b35 a93d bde0 f73d
00000310: 57d5 d23d b759 38be c0f3 f13e ae84 2c3e
00000320: 2511 e23e 7dae a1bd d881 17be f599 b5bc
00000330: 0e2d 81be e188 83bd 94ca 5c3d 7bd8 5b3c
00000340: fa65 8e3d 5578 ab3e 76e5 8bbd 86ba c4be
00000350: 1049 9ebe c506 c93e 9c9f 2dbe 0dfd a5be
00000360: 1905 cdbe 5643 b1be 4516 cfbe aec9 ab3e
00000370: 46c9 e33d a2b8 193f f1ec 593c 5842 d0be
00000380: 2909 903e 2348 98bc ecc1 b33e 2ca5 a1be
00000390: d83e 66bd 2d88 b83e c2fa 21be 6bd6 573e
000003a0: 5b43 6d3e 2226 893e d3c1 bebb bbfe dbbd
000003b0: a8bd 17be bcd0 8dbc 1f1d 933e 89e1 033e
000003c0: 47a7 4c3e 985f d73d f682 1a3f 9c2c 88bd
000003d0: cb58 33be a520 42be 2607 d9bc 7692 e43d
000003e0: df0b 983e 583b 8a3e e867 723d 76cd fbbd
000003f0: 0ad2 4fbe 8853 51bd efec 0c3e 80a9 8f3b
-0.7066862 0.54288673 0.2974538 -0.24995235 0.22389624 0.12543947 0.03339093 -0.36164865
0.04010545 0.27770734 0.27012134 0.3960601 0.1502599 0.5444898 0.023529854 -0.08422361
-0.22324637 0.05460244 0.3728102 0.32729712 0.24326345 0.14174066 0.54612637 -0.18711759
-0.10675808 0.07049936 -0.18419044 0.064930916 0.1823154 -0.070621274 0.062202517 -0.2508657
0.009344282 -0.0902357 -0.08055454 0.43401107 -0.121097445 0.20032477 -0.17883457 0.33043265
0.32331797 -0.19350995 -0.06783882 -0.19038041 0.18996406 0.06956169 -0.59912276 -0.03132505
-0.039217647 -0.15736327 0.24989921 0.15245178 0.23635653 0.32291275 -0.40639043 0.29931012
0.074842855 0.3720654 -0.16439694 -0.058298897 -0.14130063 -0.36683702 0.13998273 0.2396167
0.080677845 0.30957133 0.18869495 0.24207132 -0.19181077 -0.09168305 0.07534966 -0.31429178
-0.26531285 0.09130626 -0.2797788 -0.25489426 -0.09061492 0.11764611 -0.34771004 -0.19992815
0.3926462 -0.37931558 0.30361095 -0.16474433 0.48998663 -0.3532317 -0.41235363 -0.42026553
0.47540587 0.038623832 0.58075553 -0.46353072 -0.21407573 -0.18499154 0.012653518 0.40772626
0.21557206 0.1455298 0.014051905 0.23308179 -0.14046013 0.6238147 -0.14472693 0.1166931
-0.22393484 0.26170388 0.41506675 -0.053351574 0.110525765 0.0019052847 -0.11833286 -0.39242837
0.38316268 0.3555735 0.19424441 0.09775791 -0.1558065 0.1943685 0.16869728 0.17056975
-0.37012112 0.10159605 -0.3070078 -0.018664034 -0.14329417 -0.24552578 0.2985452 0.031661578
-0.26726896 -0.341677 0.018590577 0.27053216 -0.40601683 -0.001694539 0.5005535 -0.12975466
-0.0143797025 -0.16394475 -0.0051562167 0.027098274 -0.0061085396 -0.23042436 -0.042575516 0.29008853
0.38867715 0.11101853 0.15008807 -0.38748106 -0.20306876 -0.038618933 -0.21818523 0.4257395
0.14455819 -0.04951108 0.08506798 0.37162337 -0.1526516 -0.15744929 -0.21368353 -0.0912618
-0.24809918 0.39821792 0.4576939 0.06869037 0.057421394 -0.15142208 0.50180584 0.5689568
-0.30840003 -0.32233322 -0.318824 -0.021146197 0.19282602 0.037872955 0.24468699 0.12618728
-0.2790774 0.51308596 0.246513 0.19093631 -0.058919493 0.20590344 -0.38630238 -0.14893073
0.23286797 -0.19943169 -0.19373952 -0.00458095 -0.06294672 -0.11379367 -0.07740484 -0.23985459
-0.07513943 0.061139684 0.08262094 0.12103412 0.102945976 -0.18002973 0.4725628 0.16847488
0.44153705 -0.07894609 -0.14795625 -0.022168139 -0.25229686 -0.06422592 0.05390413 0.013418312
0.06953044 0.33490244 -0.068308756 -0.38423556 -0.30915117 0.39262977 -0.16955417 -0.32419625
-0.40042952 -0.34621686 -0.40446678 0.33552307 0.11122374 0.6004735 0.01330112 -0.40675616
0.2813199 -0.018589085 0.35108888 -0.3157133 -0.056212276 0.36041394 -0.15818313 0.21077888
0.23170225 0.26786906 -0.0058214455 -0.10741945 -0.14818442 -0.017311446 0.28733155 0.12879004
0.19985686 0.1051628 0.6035608 -0.066491336 -0.1751434 -0.18957765 -0.026492666 0.11160748
0.29696557 0.269984 0.059181124 -0.12295048 -0.20294967 -0.051105052 0.13762258 0.0043842196

linear1.bias f4 [256]
00000000: e5ce bf3d f1c3 3fbe c89b 313d 3a73 c3bd
00000010: 30d7 86be 1053 87bd e425 77bd b7f9 97bd
00000020: 6db4 97bc b352 72be aa3d 18bd 3508 babe
00000030: bc53 013f 4768 51bd bf88 3c3d 733a 1c3e
00000040: cd18 733e 8099 93be a526 b23c a55a 93bd
00000050: aa36 b7bd 84db 05be 3308 f4bc 8428 8abe
00000060: e45e 813d a8ba 13be cce7 84be ec91 3abe
00000070: 0313 99be ed19 cf3e 3360 0d3d 0f96 0dbe
00000080: a173 62be bbbe 7cbd ec92 b53c 2efe 953a
00000090: dec9 ba3e 8dec f7bd 549f 29be 0a31 63be
000000a0: b4d5 2fbd 4f0f 023c 3d71 813e afad 193e
000000b0: 0307 cf3d 188d d3bd fb56 60bc 0248 2a3d
000000c0: 1826 463e 1666 f5bd 8a5f 86bd c15c 22be
000000d0: 7d4e 963d 9043 6ebe 2a03 42be a40e 8c3e
000000e0: eae0 7f3e a802 6abe 51ca a3bd fabc c13e
000000f0: f878 50be e4dc 2dbe 601f 15be d7df 8cbe
00000100: 1f53 62bd ae61 0c3f bbb1 433c e3d0 87be
00000110: b37d edbc 6e3e aebd 8b9e b4bd ef38 bfbc
00000120: 332f 50bd cf3e bdbd c7d2 0abe 1a1e 96be
00000130: 3d44 09be f699 07be 8d24 87be 8b1f 803c
00000140: dcd7 2ebe 1749 f2bc 9514 21be 94cc 20be
00000150: b749 423e 8923 15bd 73bc bbbe d0ed b63d
00000160: df9c 05be d201 9d3e 74f9 183e dbae 9abd
00000170: bd32 19bb db59 e7bd 0075 df3d 055d 073c
00000180: dfbd 0dbc be00 493d 55db e9bd 396f 85be
00000190: 4999 be3e cf9e c9bc 7766 e3be ee3c cebd
000001a0: b391 903d 106d a63d 1b05 043e f3c4 3dbe
000001b0: a6fb 4dbe dbf0 4cbe a198 d43d 28f3 89be
000001c0: a019 d73e 1eec 9bbd ac3b 6e3d c726 eebd
000001d0: d55a c03c 6565 923e d149 c23d 5dc5 96be
000001e0: 351c cebd 2ee4 013c 92e0 3c3e d107 1cbe
000001f0: ae7c a4be 905a 8abe 2560 edbd d5e9 74be
00000200: 2c9f 6dbd 0f5a 94bd 4c45 3ebe 6e69 bfbe
00000210: 5f03 693d 31d8 3bbe 7264 053e 3c1c c93e
00000220: 22da 84be e1da f2bd 01f3 13bd 786b 383d
00000230: afc1 c03b 3e73 cd3d 5ad1 463e 47a1 b23d
00000240: 0a57 833e 1a1b 24bd 57e5 c4ba da73 bfbd
00000250: f451 c9be 4563 22bc 3172 5c3d 42fc 7c3d
00000260: 322c c83d 44b2 573e 1ca0 84be d53a 073d
00000270: 5807 28be 7b0a 843d 5384 6bbe 7a6e b33d
00000280: 740e 543c ffd4 483e e451 4dbe a1b2 093e
00000290: 0694 3dbd dd44 0bbe ef94 0cbe b66c 983e
000002a0: fb32 a8bd ba6b b33e bcf3 53be 01f1 ec3d
000002b0: e757 2ebe 5833 86bd 5b05 9ebd a580 e33d
000002c0: 6cb9 c13c c65c f7bd ac11 2d3d a895 d53c
000002d0: f9f9 14be 8c01 20be 25ce 99bd 950f b23d
000002e0: 66ae 653b fe10 62be dd82 3ebd c580 65be
000002f0: b547 ba3d e919 343e d58a 4c3e 8355 4d3e
00000300: 0627 f5bc 4097 553e 23df 28bd 3012 35be
00000310: 7564 e0bc ed9b 813e 96c3 123e afdd acbd
00000320: 53c4 aabb 3f20 ac3b 982b bdbd c172 923e
00000330: a24c 853e cd62 fdbd a869 4dbe 4e3b 1abe
00000340: b70f 04bd 6ae5 153d 1fde 89be 6af5 eebd
00000350: 0bc4 12bd 4037 853e 7200 9cbc e1ce 083e
00000360: f5ac 8dbe f58a 46be 92d8 84bc c8db 24be
00000370: 5723 0cbe 5fd3 1ebe 228a 233d ffc3 74be
00000380: 0036 eb3c a371 56be e7e1 023f dfb8 a13e
00000390: 6c83 f2b8 d02c 363e dea0 ce3d 406a d5bd
000003a0: 4dac 183d de0e c1bc 2e76 ebbc fea5 fe3e
000003b0: 35b5 f13e fe54 ab3e bfd1 c9bd b585 7abe
000003c0: 0c20 3cbe 19cf e2bd 4154 6abe 3e5a 81bd
000003d0: e38c 87bd 4345 893e b293 df3c 52c2 b1be
000003e0: 9251 2b3e 1a1e a0bc 8e51 6cbe d371 d43e
000003f0: 74af 493e 6dfb b9bd d374 44be cb05 7abe
0.09365634 -0.1872709 0.043361455 -0.09543462 -0.2633605 -0.0660764 -0.06033887 -0.07420676
-0.01851865 -0.2366436 -0.037168182 -0.36334386 0.50518394 -0.051124837 0.04602885 0.15256672
0.2373993 -0.2882805 0.021746943 -0.071950234 -0.08945973 -0.1307202 -0.029789066 -0.26984036
0.06316927 -0.14426672 -0.25958097 -0.18219727 -0.29897317 0.40449467 0.03451557 -0.13826774
-0.22114421 -0.061705332 0.022164784 0.0011443549 0.36482137 -0.12105665 -0.16564685 -0.22186676
-0.042928413 0.00793822 0.25281706 0.15007661 0.10108759 -0.10329646 -0.013692613 0.04157258
0.19350469 -0.11982362 -0.065611914 -0.15855695 0.07339189 -0.2326796 -0.1894652 0.2735492
0.24988142 -0.22852576 -0.07997573 0.3783949 -0.20358646 -0.16978794 -0.1456275 -0.27514526
-0.05525505 0.5483655 0.01194423 -0.26526555 -0.028990602 -0.08508001 -0.08819302 -0.023342578
-0.050826263 -0.092404954 -0.13556968 -0.2931984 -0.13404937 -0.13242325 -0.26395074 0.01564004
-0.17074531 -0.029575868 -0.15730508 -0.1570304 0.18973432 -0.036410842 -0.36667213 0.08932078
-0.13048123 0.3066545 0.14938909 -0.07552882 -0.002337619 -0.112964354 0.10910988 0.008261924
-0.008651226 0.049072973 -0.114187874 -0.2606142 0.37226322 -0.024611859 -0.44414112 -0.10070215
0.0705904 0.08126271 0.12892573 -0.18532161 -0.20115528 -0.20013754 0.10380674 -0.26943326
0.42011738 -0.07613395 0.058162376 -0.1162849 0.023480812 0.28592983 0.094867356 -0.2944745
-0.10063974 0.007927937 0.18445042 -0.15237357 -0.32126373 -0.2702222 -0.11590604 -0.23917325
-0.058013126 -0.0724374 -0.18581122 -0.37385124 0.05688798 -0.18344189 0.13026598 0.39279354
-0.25947672 -0.11858154 -0.03612042 0.045024365 0.005882464 0.10031746 0.19415799 0.087221675
0.25652343 -0.04006491 -0.0015021962 -0.09348269 -0.39320338 -0.009911363 0.05381984 0.06176401
0.097740546 0.21064097 -0.25903404 0.03301509 -0.16409051 0.064473115 -0.22999696 0.08761306
0.012942899 0.19612502 -0.2005077 0.13447048 -0.046283744 -0.13600488 -0.13728689 0.2977044
-0.08212849 0.35043126 -0.20698446 0.11569405 -0.1702572 -0.06552762 -0.07715865 0.11108521
0.023647986 -0.12078242 0.04225318 0.026072338 -0.14548482 -0.1562559 -0.07510022 0.08694378
0.0035046577 -0.22076795 -0.04651152 -0.22412403 0.09095708 0.17588009 0.19974835 0.20052151
-0.029925834 0.20858479 -0.041228425 -0.17682719 -0.027391652 0.25314274 0.14332423 -0.0844072
-0.005211392 0.0052528675 -0.092368305 0.28603175 0.2603503 -0.123723604 -0.20059836 -0.15061685
-0.03224155 0.03659574 -0.26927277 -0.11667903 -0.035831492 0.26018715 -0.019043181 0.13360168
-0.27671018 -0.19388945 -0.01621655 -0.16099465 -0.13685356 -0.15510319 0.039926656 -0.23902892
0.028712273 -0.20941786 0.5112595 0.31586358 -0.000115639385 0.17790532 0.10089277 -0.10420656
0.037273694 -0.02356666 -0.028742876 0.49736017 0.47208562 0.3346328 -0.09854459 -0.24465068
-0.183716 -0.11074657 -0.22883703 -0.063160405 -0.06618669 0.26810655 0.027292106 -0.34718567
0.16730335 -0.019545604 -0.23077986 0.4149309 0.19695836 -0.09081159 -0.1918519 -0.24416272

linear2.weight f4 [3, 256]
00000000: 7018 7c3e fa9b 01be d47a cabd 3137 64be
00000010: 222c 90be 8eee f4bd 8428 46bd 2a48 973e
00000020: b16e b8be 9e05 84be 006c 5f3e 7e12 10be
00000030: 05c1 a83e 044e 8abe 495d dabd 5c81 bc3c
00000040: 66d7 ee3d 033a 043d ac7f dbbc 5329 a6be
00000050: fda6 813d 1cb8 96bd 6eb7 febe e174 693c
00000060: 04c1 2ebc f4e6 1bbe 3a63 4bbd 867c cc3e
00000070: 6e15 91be 0c9d 503d 7d20 b53e 3457 06be
00000080: 7924 31be b7b9 c5bd 60f2 ff3d 7c77 92be
00000090: 5096 363e cbe7 79be 2046 4bbd 0ac0 a7bd
000000a0: c676 15be be8d 5e3e 7518 013f 5e87 ba3e
000000b0: 2017 bc3e 2a18 7e3e 4393 0bbd 091a 1dbf
000000c0: b8a5 9b3e 9681 ebbd cf1b d93d fd09 543e
000000d0: 182f 163e 97c9 1abf cbaf 45be 8ba3 1a3e
000000e0: 814d 353e 16aa 963c 0d88 773d d24a 943e
000000f0: 183a 9b3c 24e0 2cbe 35f0 50be e125 483e
00000100: 6112 9a3c da29 203e 9b82 023e 88f1 f8bd
00000110: f0b6 f23e fd68 623e 8705 943d 9adb 30bd
00000120: 1b78 a23e 8205 363e 980b 193d cc81 efbe
00000130: 1aa8 52be 0d1b 073e df6c 15be 809f d23e
00000140: 2419 6abe 4419 c03b 62ad 5cbe 418c 4fbe
00000150: 7c9d 773e 3355 913d 393d efbe ed43 32be
00000160: 4e49 59be 5529 b43d 045f d03d 0df0 8abd
00000170: d953 a5be f8d2 a5be d319 8bbc db8d a0bd
00000180: 1c29 6cbd 0d55 c33d a987 7cbe e9cc 64be
00000190: 589f 723e 59c5 08bf b515 c13c eefd 7cbd
000001a0: f2e9 1e3d 61a2 0ebf 2d64 b53d 1c90 84bc
000001b0: 1b9d 76be 0dd6 f0bd 2dcf e03e 4c73 0fbd
000001c0: d5a2 9b3e d661 70be 7d4e c23e 5e69 16be
000001d0: ff2d 83bd 3bc4 c73d ccbb 04be d04b 96be
000001e0: 654a 893e 7df2 b73e 1785 c03e b94d 1d3a
000001f0: 19c5 8bbd 590b 00bf 72fd d73e ed91 38bd
00000200: ba6e 86be b5f6 5bbe fb52 2fbd 5ff0 353d
00000210: d63b 813d 4f86 88be 347b 63bd 3127 9a3e
00000220: 7882 3b3c af29 7ebe aa82 54be 2103 453d
00000230: ea79 dd3c 7ff6 513e 438f 7e3e e7ed 0bbf
00000240: 213f b83d 3a85 b8bd e7ff 0fbf 7ae7 1ebf
00000250: 7400 8abe d696 e0bd ea87 bf3d 3983 2fbe
00000260: d2b2 a0be 50ea a13e 1c57 693e b5d7 98be
00000270: cf4b efbe b536 8a3e 36c0 cfbe e4c9 ef3e
00000280: a306 34bc 7f70 653e 7070 30be 5abd 883e
00000290: 380f 18bf ef70 7a3d f5ef 44bc 5959 453e
000002a0: adcc b9be b73a 0e3e 86d7 54be 46ca 913c
000002b0: 0fae 823e a3c8 96bd 63a9 3abe abff 623e
000002c0: 0deb 11bf 710b 83bd 1bed 81bd ea0e 08bd
000002d0: c914 c1bd 1bf3 ecbc 3b48 d0bd 96a2 8e3e
000002e0: 654c 69be f920 b5bd 1be8 93be 9693 acbe
000002f0: 57dc 31bd ba99 4fbd d2f6 8d3e 29a6 fd3e
00000300: 0664 98bd 9448 813e 0a6c 5fbe 6ad5 45bd
00000310: 8a30 05be fa89 8fbe 63a0 0e3e 825e 173e
00000320: ceab f6bc 70f2 66bd a5f6 aebe eecf f83d
00000330: 6888 5a3d fff8 b7be 600b 2abe 6256 c8be
00000340: 85ed 7fbe 3893 29be 302a 203c 395a 26bf
00000350: 3eb7 9f3e 36d6 2e3e a187 123c ac27 f33e
00000360: 0e99 a9be b8df 4fbd b0d7 e63d 2afa 1e3e
00000370: b5fb 38be fa79 f6be 8cba b3be b225 a6be
00000380: d840 abbe 5e54 863e c339 9a3e 6bfc 423e
00000390: 4aa4 99be fb04 9f3e e734 9dbd 8eed 163e
000003a0: ca7d 52be 07ba 2fbe 2a55 553e 1e47 923e
000003b0: 072c c73e 82e6 923e c34d ea3b 703b 0c3d
000003c0: 4de9 663d f6af 47be d1b4 0f3c 43d1 a93e
000003d0: 5f32 fc3d 2e15 0d3e b489 9d3e e86d 5cbe
000003e0: 1e68 5f3e df8d 79be 288f 0c3e 2f2f 723e
000003f0: 623a 1b3e 1907 783e 995e b1be 2bb4 1ebe
0.24618697 -0.12657157 -0.09886709 -0.22286679 -0.2815867 -0.11959563 -0.048378482 0.29547244
-0.3602195 -0.25785536 0.21818542 -0.14069554 0.32959762 -0.27012646 -0.10662324 0.023010902
0.11662178 0.032281887 -0.026794277 -0.32453403 0.063306786 -0.07359335 -0.4974932 0.0142490575
-0.010666136 -0.1522482 -0.049655177 0.39938754 -0.28336662 0.05093102 0.3537635 -0.13119203
-0.1729907 -0.09654563 0.12497401 -0.28606784 0.17830777 -0.24404828 -0.049627423 -0.081909254
-0.1459609 0.21733758 0.50427943 0.36431402 0.36736393 0.24813905 -0.034075987 -0.6136785
0.3039987 -0.11499326 0.10601007 0.20706935 0.14666402 -0.6046385 -0.19305341 0.15101449
0.17705347 0.01839165 0.060432483 0.28963333 0.0189486 -0.16882378 -0.20404132 0.195457
0.018807592 0.15640965 0.12745135 -0.121554434 0.47405195 0.22110362 0.07227617 -0.04317818
0.31732258 0.17775539 0.037364572 -0.46778715 -0.20571938 0.13193913 -0.14592312 0.41137314
-0.22861153 0.005862387 -0.21550515 -0.20268346 0.2418117 0.070963286 -0.46726397 -0.17408724
-0.2121937 0.08796946 0.10174373 -0.06784067 -0.32290533 -0.3238752 -0.016980087 -0.07839557
-0.057656392 0.095377065 -0.24661125 -0.22343792 0.23693597 -0.5342613 0.023569921 -0.061765604
0.038797326 -0.5571652 0.08856998 -0.016181998 -0.24083368 -0.11759577 0.43908063 -0.035022065
0.30397668 -0.23474821 0.37950507 -0.14688632 -0.064052574 0.09754225 -0.12962264 -0.29354715
0.2681457 0.3592719 0.3760154 0.0006000656 -0.06824703 -0.50017315 0.4218555 -0.04506104
-0.26256353 -0.2148083 -0.042803746 0.04441869 0.06310241 -0.2666497 -0.055537418 0.30108026
0.01144468 -0.24820589 -0.2075297 0.048098687 0.027035672 0.20504187 0.24859338 -0.54659885
0.08996416 -0.09009786 -0.5624985 -0.62071955 -0.2695347 -0.1096627 0.093520954 -0.17139901
-0.3138643 0.3162408 0.22787136 -0.2985207 -0.46737525 0.26994863 -0.40576333 0.46833718
-0.01098791 0.22406195 -0.17230392 0.26706964 -0.5939822 0.061142858 -0.012020101 0.19272365
-0.36288968 0.13889585 -0.2078534 0.017796647 0.2552342 -0.07362487 -0.18228678 0.22167842
-0.56999284 -0.06398667 -0.063440524 -0.03321735 -0.094277926 -0.028924515 -0.10170027 0.27858418
-0.22783048 -0.0884418 -0.2888802 -0.3370635 -0.043423023 -0.050683714 0.2772737 0.49540833
-0.07440953 0.25250685 -0.21818557 -0.04829923 -0.13006797 -0.28034955 0.1392837 0.14782146
-0.03011122 -0.05638355 -0.3417255 0.121490344 0.053352743 -0.35932156 -0.16605902 -0.39128405
-0.2499295 -0.16560066 0.009775683 -0.6498142 0.3119449 0.17073902 0.008943469 0.47491205
-0.33124584 -0.050750464 0.11271608 0.15525118 -0.18064769 -0.48139936 -0.3510326 -0.32450634
-0.3344791 0.26236242 0.30122194 0.19041602 -0.30008155 0.31058487 -0.07676106 0.14739057
-0.20555797 -0.17160808 0.20833269 0.28569883 0.38900778 0.28691489 0.007150383 0.03423637
0.056374837 -0.19500718 0.008771137 0.33167467 0.12314295 0.1377761 0.30769122 -0.21526301
0.21817061 -0.24370526 0.13726485 0.23650812 0.1515899 0.24221458 -0.34642485 -0.15498416

linear2.bias f4 [3]
00000000: 9fa3 2f3e 3492 53bc 4e06 cfbc
0.1715226 -0.0129132755 -0.025271561
